camb/data/pd_data/thetastarmc_CLprime.npy (npy, 96152 bytes, 1 tensors)

array f8 [4001, 3]
00000000: 0000 0000 0000 0000 0000 0000 0000 0000
00000010: 0000 0000 0000 0000 0000 0000 0000 0000
00000020: 0000 0000 0000 0000 0000 0000 0000 0000
00000030: 874c f085 94fc b640 81a8 9172 5fbf b13f
00000040: d1be da81 3471 d5bf 040c 1898 c350 a140
00000050: 6f13 0ae5 4036 963f c041 a959 4f10 df3f
00000060: 844e 3afb 58de 8f40 0f1a a4f5 9c7a 74bf
00000070: b9ac 9e3a d07b c13f 0c59 b6e4 d0c1 8040
00000080: 84dd 6083 c325 85bf 2f07 6cc1 8e3b b4bf
00000090: ea6c 1715 b16f 7340 50f0 7d54 bcff 7bbf
000000a0: 4add ef62 4056 c0bf 64ff b1b0 984c 6840
000000b0: e53f 7988 0a61 66bf d4c5 f4a6 8c91 bbbf
000000c0: 42d8 2bba 5f22 6040 aef8 fb02 cf58 45bf
000000d0: 7f78 6900 0c69 b1bf 0bc2 b0ef e781 5640
000000e0: 8392 bd4d 789e 25bf 191b 9414 187e 9fbf
000000f0: 4b30 a4ab 7963 5040 e139 559f 1921 2cbf
00000100: f7a1 c128 edf0 5dbf 3672 114c b3b7 4840
00000110: 1df0 b3a3 08ff 2bbf 5b7b 6fd7 c3b6 903f
00000120: adaf 2fce e829 4340 21ae 4508 461e 19bf
00000130: a858 c886 4475 9a3f 2920 a7f6 1e79 3e40
00000140: 720a a6b8 4eed f03e c1f0 b0fa 8030 9e3f
00000150: 5594 37bd b2bd 3840 dcab e46a e5b9 0d3f
00000160: 27b1 48c0 570f 9e3f 0801 b204 187d 3440
00000170: e4cc 0edc 4b2f 123f eed7 9a5c 69e8 9b3f
00000180: d727 bd8f b839 3140 90b3 c26d ee3d 183f
00000190: 7904 986b e339 993f 287c d01e a771 2d40
000001a0: 3a0c ba07 a127 213f f3d8 98a1 f81c 973f
000001b0: 6c07 7762 2780 2940 7396 23f8 44a0 273f
000001c0: 2084 5ec8 3b88 963f 3284 7b29 7f61 2640
000001d0: 0bb1 e3a8 23a3 2d3f f99e 3af3 5480 963f
000001e0: 735c 7a33 94e1 2340 bb6f ce47 a100 313f
000001f0: b146 6a36 f4fd 953f 948d e88f c4d9 2140
00000200: c3e7 d9ee d9c4 323f ef78 8d71 d6b4 953f
00000210: bda1 5b63 e327 2040 2d81 d5fa ff70 343f
00000220: f1ee 0156 9797 953f 64c8 632e a76e 1d40
00000230: f871 63e4 8beb 353f 47c2 339c 37d8 943f
00000240: 463f 997c e113 1b40 d172 64e7 d81d 373f
00000250: f14d ada9 c2e9 923f 0bcd ec42 e60e 1940
00000260: 7012 d2db 5d2a 383f 49b8 3e24 813d 903f
00000270: 61f5 0d9d 5059 1740 d9ae 28aa 3a43 393f
00000280: af75 71be adea 8a3f 098d 7193 45d1 1540
00000290: 644a c920 fd95 3a3f 96cf 3fd9 55c8 853f
000002a0: 0906 cee5 1491 1440 45b3 8dc0 3d1f 3c3f
000002b0: 0541 c241 6ecf 813f d531 7669 be6e 1340
000002c0: 8161 c1d5 cfc7 3d3f b75d 8242 b6e0 7c3f
000002d0: fbdf 76ba 4c9f 1240 4e65 d970 e861 3f3f
000002e0: 7403 d120 7379 763f ff7a cfee 5775 1140
000002f0: 6d9f 531d 8e7f 403f 0caa b109 b599 703f
00000300: e320 5d17 70ca 1040 70c0 34ab 1246 413f
00000310: 0798 d216 5164 663f 1db8 e409 ac2b 1040
00000320: 06ef 1e3a d404 423f 58c3 e672 da15 583f
00000330: 919c cf28 f2d6 0e40 fc5e 0dab 0dc7 423f
00000340: e884 6438 d4de 333f aa42 055f e5c7 0d40
00000350: b021 5302 f780 433f 09bf 4235 3ac4 52bf
00000360: 268f 2e61 4bca 0c40 4907 465f 4c29 443f
00000370: 3423 07b9 2124 67bf dd4e 3503 8bdc 0b40
00000380: 3300 8780 69d1 443f bfbe 25b3 85eb 72bf
00000390: 7bce b0dc 3afd 0a40 62f6 f55d 7e7e 453f
000003a0: b971 cb5d 6bed 79bf 0c67 5386 c56e 0a40
000003b0: 3b74 113a ec31 463f 1b55 5c78 2e2c 80bf
000003c0: a211 c63a 6ba5 0940 2498 0e4d dde4 463f
000003d0: 936d 28c2 f01d 83bf 393f cc66 af24 0940
000003e0: f334 d229 4699 473f b6f1 dd29 ccd2 85bf
000003f0: 6f79 479b 346e 0840 5fa6 7b64 9049 483f
00000400: 664f 35b3 b55f 88bf b1f5 7dc2 82c1 0740
00000410: 4656 a456 b9f5 483f b932 72cf 35d6 8abf
00000420: c664 1bcd 2953 0740 71c6 e949 23a2 493f
00000430: 23b7 6ef7 f444 8dbf f706 040e 89e8 0640
00000440: cb83 5d17 eb45 4a3f a804 1c4c 30b8 8fbf
00000450: 4ff2 42ec a150 0640 ae1c b65a b0e5 4a3f
00000460: 1478 b640 4d23 91bf 7058 6b0d fbee 0540
00000470: e58f a498 ae7d 4b3f 9482 dfcf 9669 92bf
00000480: 3045 fd56 7190 0540 fff9 5121 f513 4c3f
00000490: 10b5 95b5 efab 93bf 71bc 3176 f85f 0540
000004a0: 9f72 9dcf a4ad 4c3f 627f 34f0 9ae5 94bf
000004b0: 8ad9 334a 2ddc 0440 9ee9 db7b a335 4d3f
000004c0: 9dac 9737 8f11 96bf 4664 ddf8 3286 0440
000004d0: ec0f a485 f0bd 4d3f c22d 64f6 1a2d 97bf
000004e0: 3292 8b2a 2359 0440 10a2 9942 3746 4e3f
000004f0: c231 cc0f eb3a 98bf 9f41 99a3 db06 0440
00000500: 2200 473f 2fce 4e3f 74b9 cea2 643d 99bf
00000510: 8262 a6ff 0db7 0340 224b a9c3 7c38 4f3f
00000520: 50dd 931b 4538 9abf 5215 805c 9f69 0340
00000530: d0c2 c421 27b2 4f3f f07a 47fa 6d2c 9bbf
00000540: 0024 7054 883f 0340 d81a f0bf e815 503f
00000550: 8797 6742 071d 9cbf b030 d798 68f5 0240
00000560: 58d7 0a9a 174c 503f 92cc 0a72 660a 9dbf
00000570: 1c1f 122b 47cc 0240 7094 5541 8382 503f
00000580: cc3f 89a4 1bf0 9dbf 550a 4dbd 25a3 0240
00000590: f3d1 e6b5 f2b2 503f 42e8 72c2 91d1 9ebf
000005a0: a55d 7092 157a 0240 111d bcfc cde3 503f
000005b0: 00b6 e039 22ab 9fbf 2819 3155 3c35 0240
000005c0: 207b bd3c 8809 513f fd34 d5dc 6340 a0bf
000005d0: d1ac 4eaa 5c0d 0240 8911 3c54 b835 513f
000005e0: b201 4953 8ba7 a0bf 3e26 f312 abe5 0140
000005f0: 44de eeee 9e57 513f bed5 75ea 8909 a1bf
00000600: a4e7 1121 92d7 0140 a0bf eda0 837a 513f
00000610: c4ce 2279 b366 a1bf ac2b 69d9 95af 0140
00000620: 6d72 7317 3999 513f 8183 655e 55bf a1bf
00000630: f18f edd5 eb87 0140 ac7f 1722 13b4 513f
00000640: c639 95f9 2f12 a2bf 094a d2c7 c577 0140
00000650: a4cc 8f86 5ecb 513f 1eb0 d18c 2361 a2bf
00000660: edc1 491b 2650 0140 3415 5738 fde3 513f
00000670: 5572 6a3b fbaa a2bf 1d5a b007 cb3e 0140
00000680: 02d1 a42a 5df0 513f 43c5 c004 0ef0 a2bf
00000690: 062e c54b 6417 0140 78f3 0d64 8cfe 513f
000006a0: 15f3 3641 0832 a3bf 2bce 0dc4 73f0 0040
000006b0: 545c e3ec 250a 523f 0415 673b 1771 a3bf
000006c0: c038 7a42 26f2 0040 6bc2 ddfd 7817 523f
000006d0: c114 7df9 d2aa a3bf 7158 8228 11cb 0040
000006e0: 290e acec 5c1a 523f 358c 4e69 18e2 a3bf
000006f0: 4968 869b 86b7 0040 f906 0f55 531f 523f
00000700: 7fb6 d6bc 9a14 a4bf c9fa e72f 81a3 0040
00000710: 1f25 1fa3 9b1e 523f 0f52 0c4e ab42 a4bf
00000720: bf16 d2ba 057d 0040 58ac 5895 571c 523f
00000730: f950 530e bd6d a4bf 59f8 c249 3f7a 0040
00000740: 049c 725a 0c15 523f a105 be43 bf93 a4bf
00000750: 2649 c7fc fa53 0040 76f0 3798 2010 523f
00000760: 83e7 1844 22b6 a4bf c836 5f99 b24f 0040
00000770: 9294 d565 2503 523f 0e09 ba6f 83cb a4bf
00000780: c882 2d69 c129 0040 88de 87dc 0af2 513f
00000790: 380f 30d1 e1ee a4bf c453 c264 3124 0040
000007a0: 3388 2035 21dd 513f ecb8 413d c004 a5bf
000007b0: 1bbb f021 53fd ff3f f20f 2bf6 dfc7 513f
000007c0: f679 908c 100e a5bf 8145 dfc6 07f0 ff3f
000007d0: 918b c98b 04a9 513f 5ce7 2bd8 141f a5bf
000007e0: 4b33 5555 11e1 ff3f f8f0 3698 5d8d 513f
000007f0: 8530 899f c92d a5bf d136 dbbe aeb3 ff3f
0.0 0.0 0.0 0.0 0.0 0.0 5884.580168741878 0.06932636782735992
-0.33503449135876645 2216.3820197596233 0.021691335658505503 0.48537048107121095 1019.7934479289256 -0.00499974548643546 0.13659098493858382 536.2269987340856
-0.010325934836244562 -0.07903377744881078 310.98073300505223 -0.006835685409779371 -0.12763218718439823 194.39363894238625 -0.0027318196987735515 -0.10768965793683744
129.07418545306615 -0.0006514559554202848 -0.06800913820322484 90.02978126775285 -0.00016494005728441918 -0.030754448181165992 65.55430117639587 -0.00021460950635306036
-0.001827460861955397 49.43515921451437 -0.0002135942503186391 0.016322193168771686 38.32741715744428 -9.581854289358222e-05 0.025837965704419347 30.473128715326457
1.614282840868082e-05 0.02948190240952964 24.74100859267158 5.669814469152327e-05 0.029355403052407383 20.48864774080087 6.93693209672833e-05 0.027253767277862488
17.22547243469293 9.247558358778233e-05 0.024634889070516117 14.721978152227237 0.00013088074398490292 0.02257145391760047 12.750300480871111 0.00018025247488322494
0.022004064659658096 11.190423294379887 0.0002261143712937247 0.021973922105330754 9.940583809553777 0.0002594369651036617 0.02147656995891251 8.925327775132963
0.0002863914549845437 0.021197653465940765 8.077906708655854 0.0003119111014111716 0.02108608686874808 7.358059620704896 0.000334474233012277 0.020356053265404375
6.7694148510489125 0.00035273118500515644 0.018469850164661798 6.264550252631362 0.00036873618575609165 0.01585962089273377 5.83722157857605 0.00038547689669841744
0.013142926573148054 5.454366973691557 0.0004056685436683359 0.010636015598698905 5.141681280803376 0.00042910821553370323 0.00869642389469095 4.858148238982229
0.00045441459747543744 0.0070502395175461785 4.655566133027601 0.00047885823082579194 0.005486917228211808 4.364593249715425 0.000503487007020615 0.004052836589020458
4.1976932192412475 0.0005271521717187377 0.002733381631133905 4.0426484628533474 0.0005498920693222948 0.0014700539864913233 3.854954069934657 0.0005730454196095354
0.00030319863471291045 3.7226054595451687 0.0005952077960041293 -0.0011454170644746317 3.598776587708829 0.0006152747069309929 -0.002824846138740256 3.4826870203631715
0.0006353154322411625 -0.004619142784903551 3.3736474267441827 0.0006559483553442819 -0.0063299364089427984 3.304087685985797 0.0006773379756271966 -0.007896769569507847
3.2057709304519486 0.0006986694880779559 -0.009334450650434067 3.142912676914332 0.000720175990538556 -0.010655970599821579 3.053811276549076 0.000741191391140105
-0.011901301890851545 2.969487685650812 0.0007617144558788667 -0.013103886025669241 2.9156070732102277 0.0007822677906245812 -0.014291681099929903 2.863542661188031
0.0008017919451327402 -0.015488030741382566 2.789371343415304 0.0008208380799467252 -0.01673622806048776 2.7416897819885477 0.0008389570732885125 -0.017980915486875818
2.695528678516574 0.000856871311625984 -0.019210572679573323 2.671860621826959 0.0008751921406929436 -0.020407124434427167 2.6075082585404674 0.000891403986059292
-0.021551358955474432 2.565526909118975 0.0009076523231503742 -0.02263300064900676 2.5435241054385864 0.0009238977265342858 -0.02366225513383014 2.5033486157555696
0.0009401064585787859 -0.02464825862596727 2.4643821690227137 0.0009527787399953062 -0.025605277832224715 2.4265734888637462 0.0009672823976299653 -0.02653667297442558
2.4060217472765544 0.000981786055264491 -0.027454484394091174 2.369828409258922 0.0009947042928337337 -0.0283599860292268 2.349745117655301 0.0010076791562252628
-0.02923625175236548 2.3296618260513164 0.0010192270488974503 -0.030096318715301836 2.3096114578763314 0.0010308753580277644 -0.03092626074083249 2.275993981896267
0.0010398703043034765 -0.031741257388242496 2.256524401212666 0.0010504055107399565 -0.03252826110520192 2.23714270405324 0.001058488090832103 -0.033275899763718794
2.23025918804065 0.0010668073116128843 -0.03398667195997754 2.2107350335331457 0.001074128869553405 -0.034662883542075036 2.19136778956635 0.0010805308196424153
-0.03529500886598984 2.183482705216424 0.0010860846616623033 -0.03589736074431492 2.1641351825603494 0.001091954503281767 -0.03646073437014211 2.155660686559044
0.0010949048833711066 -0.036987722473336614 2.136421768145513 0.00109828672449838 -0.03749109073712568 2.117408305808359 0.0011010523190202641 -0.03797218895082646
2.1182370370434853 0.0011042291220883192 -0.038412659602309336 2.0991538204935343 0.0011049182382415568 -0.03883434567912795 2.0896122122185585 0.00110610139766759
-0.03921969943199332 2.0798362486524167 0.001105930318305255 -0.03957114532218863 2.0610460849155454 0.0011053901010977998 -0.039899738310539896 2.0596910250306277
0.0011036511075788189 -0.04018972112590836 2.041006064254492 0.0011024778658557366 -0.04045207101121575 2.0389148695165638 0.0010993828976435843 -0.04061518420077635
2.020388433171636 0.0010953050679044802 -0.0408850257736319 2.0176723357967337 0.0010903190891515923 -0.041051871755245134 1.999346859530937 0.0010852515339800886
-0.041122929724441024 1.9961011665767219 0.001077894629951646 -0.04125275744259113 1.9924481709778827 0.0010713018426563008 -0.04136495659312892 1.9813678222011968
